----------------------------------------------------------------
        Layer (type)               Output Shape         Param #
================================================================
            Conv2d-1           [-1, 64, 32, 32]           1,792
              ReLU-2           [-1, 64, 32, 32]               0
            Conv2d-3           [-1, 64, 32, 32]          36,928
              ReLU-4           [-1, 64, 32, 32]               0
         MaxPool2d-5           [-1, 64, 16, 16]               0
            Conv2d-6          [-1, 128, 16, 16]          73,856
              ReLU-7          [-1, 128, 16, 16]               0
            Conv2d-8          [-1, 128, 16, 16]         147,584
              ReLU-9          [-1, 128, 16, 16]               0
        MaxPool2d-10            [-1, 128, 8, 8]               0
           Conv2d-11            [-1, 256, 8, 8]         295,168
             ReLU-12            [-1, 256, 8, 8]               0
           Conv2d-13            [-1, 256, 8, 8]         590,080
             ReLU-14            [-1, 256, 8, 8]               0
           Conv2d-15            [-1, 256, 8, 8]         590,080
             ReLU-16            [-1, 256, 8, 8]               0
        MaxPool2d-17            [-1, 256, 4, 4]               0
           Conv2d-18            [-1, 512, 4, 4]       1,180,160
             ReLU-19            [-1, 512, 4, 4]               0
           Conv2d-20            [-1, 512, 4, 4]       2,359,808
             ReLU-21            [-1, 512, 4, 4]               0
           Conv2d-22            [-1, 512, 4, 4]       2,359,808
             ReLU-23            [-1, 512, 4, 4]               0
        MaxPool2d-24            [-1, 512, 2, 2]               0
           Conv2d-25            [-1, 512, 2, 2]       2,359,808
             ReLU-26            [-1, 512, 2, 2]               0
           Conv2d-27            [-1, 512, 2, 2]       2,359,808
             ReLU-28            [-1, 512, 2, 2]               0
           Conv2d-29            [-1, 512, 2, 2]       2,359,808
             ReLU-30            [-1, 512, 2, 2]               0
        MaxPool2d-31            [-1, 512, 1, 1]               0
          Dropout-32                  [-1, 512]               0
           Linear-33                  [-1, 512]         262,656
             ReLU-34                  [-1, 512]               0
          Dropout-35                  [-1, 512]               0
           Linear-36                  [-1, 512]         262,656
             ReLU-37                  [-1, 512]               0
           Linear-38                   [-1, 10]           5,130
================================================================
Total params: 15,245,130
Trainable params: 15,245,130
Non-trainable params: 0
----------------------------------------------------------------
Input size (MB): 0.01
Forward/backward pass size (MB): 4.48
Params size (MB): 58.16
Estimated Total Size (MB): 62.65
----------------------------------------------------------------
start converting conv layer
…
  (30): MaxPool2d(kernel_size=2, stride=2, padding=0, dilation=1, ceil_mode=False)
  (31): Reshape()
  (32): Dropout(p=0.5, inplace=False)
  (33): Linear(in_features=512, out_features=512, bias=True)
  (34): ReLU(inplace=True)
  (35): Dropout(p=0.5, inplace=False)
  (36): Linear(in_features=512, out_features=512, bias=True)
  (37): ReLU(inplace=True)
  (38): Linear(in_features=512, out_features=10, bias=True)
)
----------------------------------------------------------------
        Layer (type)               Output Shape         Param #
================================================================
      Block_Conv2d-1           [-1, 64, 32, 32]           1,792
              ReLU-2           [-1, 64, 32, 32]               0
      Block_Conv2d-3           [-1, 64, 32, 32]           4,672
              ReLU-4           [-1, 64, 32, 32]               0
         MaxPool2d-5           [-1, 64, 16, 16]               0
      Block_Conv2d-6          [-1, 128, 16, 16]           9,344
              ReLU-7          [-1, 128, 16, 16]               0
      Block_Conv2d-8          [-1, 128, 16, 16]           9,344
              ReLU-9          [-1, 128, 16, 16]               0
        MaxPool2d-10            [-1, 128, 8, 8]               0
     Block_Conv2d-11            [-1, 256, 8, 8]          18,688
             ReLU-12            [-1, 256, 8, 8]               0
     Block_Conv2d-13            [-1, 256, 8, 8]          18,688
             ReLU-14            [-1, 256, 8, 8]               0
     Block_Conv2d-15            [-1, 256, 8, 8]          18,688
             ReLU-16            [-1, 256, 8, 8]               0
        MaxPool2d-17            [-1, 256, 4, 4]               0
     Block_Conv2d-18            [-1, 512, 4, 4]          37,376
             ReLU-19            [-1, 512, 4, 4]               0
     Block_Conv2d-20            [-1, 512, 4, 4]          37,376
             ReLU-21            [-1, 512, 4, 4]               0
     Block_Conv2d-22            [-1, 512, 4, 4]          37,376
             ReLU-23            [-1, 512, 4, 4]               0
        MaxPool2d-24            [-1, 512, 2, 2]               0
     Block_Conv2d-25            [-1, 512, 2, 2]          37,376
             ReLU-26            [-1, 512, 2, 2]               0
     Block_Conv2d-27            [-1, 512, 2, 2]          37,376
             ReLU-28            [-1, 512, 2, 2]               0
     Block_Conv2d-29            [-1, 512, 2, 2]          37,376
             ReLU-30            [-1, 512, 2, 2]               0
        MaxPool2d-31            [-1, 512, 1, 1]               0
          Reshape-32                  [-1, 512]               0
          Dropout-33                  [-1, 512]               0
           Linear-34                  [-1, 512]         262,656
             ReLU-35                  [-1, 512]               0
          Dropout-36                  [-1, 512]               0
           Linear-37                  [-1, 512]         262,656
             ReLU-38                  [-1, 512]               0
           Linear-39                   [-1, 10]           5,130
================================================================
Total params: 835,914
Trainable params: 835,914
Non-trainable params: 0
----------------------------------------------------------------
Input size (MB): 0.01
Forward/backward pass size (MB): 4.48
Params size (MB): 3.19
Estimated Total Size (MB): 7.68
----------------------------------------------------------------
----------------------------------------------------------------
        Layer (type)               Output Shape         Param #
================================================================
            Conv2d-1           [-1, 64, 32, 32]           1,792
              ReLU-2           [-1, 64, 32, 32]               0
            Conv2d-3           [-1, 64, 32, 32]          36,928
              ReLU-4           [-1, 64, 32, 32]               0
         MaxPool2d-5           [-1, 64, 16, 16]               0
            Conv2d-6          [-1, 128, 16, 16]          73,856
              ReLU-7          [-1, 128, 16, 16]               0
            Conv2d-8          [-1, 128, 16, 16]         147,584
              ReLU-9          [-1, 128, 16, 16]               0
        MaxPool2d-10            [-1, 128, 8, 8]               0
           Conv2d-11            [-1, 256, 8, 8]         295,168
             ReLU-12            [-1, 256, 8, 8]               0
           Conv2d-13            [-1, 256, 8, 8]         590,080
             ReLU-14            [-1, 256, 8, 8]               0
           Conv2d-15            [-1, 256, 8, 8]         590,080
             ReLU-16            [-1, 256, 8, 8]               0
        MaxPool2d-17            [-1, 256, 4, 4]               0
           Conv2d-18            [-1, 512, 4, 4]       1,180,160
             ReLU-19            [-1, 512, 4, 4]               0
           Conv2d-20            [-1, 512, 4, 4]       2,359,808
             ReLU-21            [-1, 512, 4, 4]               0
           Conv2d-22            [-1, 512, 4, 4]       2,359,808
             ReLU-23            [-1, 512, 4, 4]               0
        MaxPool2d-24            [-1, 512, 2, 2]               0
           Conv2d-25            [-1, 512, 2, 2]       2,359,808
             ReLU-26            [-1, 512, 2, 2]               0
           Conv2d-27            [-1, 512, 2, 2]       2,359,808
             ReLU-28            [-1, 512, 2, 2]               0
           Conv2d-29            [-1, 512, 2, 2]       2,359,808
             ReLU-30            [-1, 512, 2, 2]               0
        MaxPool2d-31            [-1, 512, 1, 1]               0
          Dropout-32                  [-1, 512]               0
           Linear-33                  [-1, 512]         262,656
             ReLU-34                  [-1, 512]               0
          Dropout-35                  [-1, 512]               0
           Linear-36                  [-1, 512]         262,656
             ReLU-37                  [-1, 512]               0
           Linear-38                   [-1, 10]           5,130
================================================================
Total params: 15,245,130
Trainable params: 15,245,130
Non-trainable params: 0
----------------------------------------------------------------
Input size (MB): 0.01
Forward/backward pass size (MB): 4.48
Params size (MB): 58.16
Estimated Total Size (MB): 62.65
----------------------------------------------------------------
start converting conv layer
…
  (30): MaxPool2d(kernel_size=2, stride=2, padding=0, dilation=1, ceil_mode=False)
  (31): Reshape()
  (32): Dropout(p=0.5, inplace=False)
  (33): Linear(in_features=512, out_features=512, bias=True)
  (34): ReLU(inplace=True)
  (35): Dropout(p=0.5, inplace=False)
  (36): Linear(in_features=512, out_features=512, bias=True)
  (37): ReLU(inplace=True)
  (38): Linear(in_features=512, out_features=10, bias=True)
)
----------------------------------------------------------------
        Layer (type)               Output Shape         Param #
================================================================
      Block_Conv2d-1           [-1, 64, 32, 32]           1,792
              ReLU-2           [-1, 64, 32, 32]               0
      Block_Conv2d-3           [-1, 64, 32, 32]           4,672
              ReLU-4           [-1, 64, 32, 32]               0
         MaxPool2d-5           [-1, 64, 16, 16]               0
      Block_Conv2d-6          [-1, 128, 16, 16]           9,344
              ReLU-7          [-1, 128, 16, 16]               0
      Block_Conv2d-8          [-1, 128, 16, 16]           9,344
              ReLU-9          [-1, 128, 16, 16]               0
        MaxPool2d-10            [-1, 128, 8, 8]               0
     Block_Conv2d-11            [-1, 256, 8, 8]          18,688
             ReLU-12            [-1, 256, 8, 8]               0
     Block_Conv2d-13            [-1, 256, 8, 8]          18,688
             ReLU-14            [-1, 256, 8, 8]               0
     Block_Conv2d-15            [-1, 256, 8, 8]          18,688
             ReLU-16            [-1, 256, 8, 8]               0
        MaxPool2d-17            [-1, 256, 4, 4]               0
     Block_Conv2d-18            [-1, 512, 4, 4]          37,376
             ReLU-19            [-1, 512, 4, 4]               0
     Block_Conv2d-20            [-1, 512, 4, 4]          37,376
             ReLU-21            [-1, 512, 4, 4]               0
     Block_Conv2d-22            [-1, 512, 4, 4]          37,376
             ReLU-23            [-1, 512, 4, 4]               0
        MaxPool2d-24            [-1, 512, 2, 2]               0
     Block_Conv2d-25            [-1, 512, 2, 2]          37,376
             ReLU-26            [-1, 512, 2, 2]               0
     Block_Conv2d-27            [-1, 512, 2, 2]          37,376
             ReLU-28            [-1, 512, 2, 2]               0
     Block_Conv2d-29            [-1, 512, 2, 2]          37,376
             ReLU-30            [-1, 512, 2, 2]               0
        MaxPool2d-31            [-1, 512, 1, 1]               0
          Reshape-32                  [-1, 512]               0
          Dropout-33                  [-1, 512]               0
           Linear-34                  [-1, 512]         262,656
             ReLU-35                  [-1, 512]               0
          Dropout-36                  [-1, 512]               0
           Linear-37                  [-1, 512]         262,656
             ReLU-38                  [-1, 512]               0
           Linear-39                   [-1, 10]           5,130
================================================================
Total params: 835,914
Trainable params: 835,914
Non-trainable params: 0
----------------------------------------------------------------
Input size (MB): 0.01
Forward/backward pass size (MB): 4.48
Params size (MB): 3.19
Estimated Total Size (MB): 7.68
----------------------------------------------------------------
Files already downloaded and verified
…
